…
ength': 50}], post_process=None, filter_settings={'effective_view': ['==1']}, item_info={'url': 'hdfs://node1:8020/recstudio/recflow/others/video_info.pkl', 'key': 'video_id', 'columns': ['video_id', 'author_id', 'category_level_two', 'upload_type', 'upload_timestamp', 'category_level_one'], 'use_cols': ['video_id', 'author_id', 'category_level_two', 'upload_type', 'category_level_one']}, seq_features=None)
SASRecRetriever(
  (loss_function): BinaryCrossEntropyLoss()
  (score_function): InnerProductScorer()
  (item_encoder): MultiFeatEmbedding(
    (feat2embedding): ModuleDict(
      (video_id): Embedding(82216301, 2, padding_idx=0)
      (author_id): Embedding(33474011, 2, padding_idx=0)
      (category_level_two): Embedding(784, 2, padding_idx=0)
      (upload_type): Embedding(40, 2, padding_idx=0)
      (category_level_one): Embedding(140, 2, padding_idx=0)
    )
  )
  (query_encoder): Sequential(
    (encoder): SASRecEncoder(
      (item_encoder): MultiFeatEmbedding(
        (feat2embedding): ModuleDict(
          (video_id): Embedding(82216301, 2, padding_idx=0)
          (author_id): Embedding(33474011, 2, padding_idx=0)
          (category_level_two): Embedding(784, 2, padding_idx=0)
          (upload_type): Embedding(40, 2, padding_idx=0)
          (category_level_one): Embedding(140, 2, padding_idx=0)
        )
      )
      (context_embedding): MultiFeatEmbedding(
        (feat2embedding): ModuleDict(
          (user_id): Embedding(42472, 2, padding_idx=0)
          (device_id): Embedding(42561, 2, padding_idx=0)
          (age): Embedding(8, 2, padding_idx=0)
          (gender): Embedding(3, 2, padding_idx=0)
          (province): Embedding(79, 2, padding_idx=0)
        )
      )
      (seq_aggragation): ModuleDict(
        (user_seq_effective_50): SelfAttentiveAggregator(
          input_dim=10, n_layers=1, n_heads=2, hidden_dim=64, dropout=0.3
          (transformer_encoder): TransformerEncoder(
            (layers): ModuleList(
              (0): TransformerEncoderLayer(
                (self_attn): MultiheadAttention(
                  (out_proj): NonDynamicallyQuantizableLinear(in_features=10, out_features=10, bias=True)
                )
                (linear1): Linear(in_features=10, out_features=64, bias=True)
                (dropout): Dropout(p=0.3, inplace=False)
                (linear2): Linear(in_features=64, out_features=10, bias=True)
                (norm1): LayerNorm((10,), eps=1e-05, elementwise_affine=True)
                (norm2): LayerNorm((10,), eps=1e-05, elementwise_affine=True)
                (dropout1): Dropout(p=0.3, inplace=False)
                (dropout2): Dropout(p=0.3, inplace=False)
              )
            )
          )
          (position_embedding): Embedding(50, 10)
          (seq_aggragation): LastItemAggregator(dim=1)
        )
      )
    )
    (mlp): MLPModule(
      (model): Sequential(
        (0): Dropout(p=0.3, inplace=False)
        (1): Linear(in_features=20, out_features=64, bias=True)
        (2): ReLU()
        (3): Dropout(p=0.3, inplace=False)
        (4): Linear(in_features=64, out_features=8, bias=True)
        (5): ReLU()
        (6): Dropout(p=0.3, inplace=False)
        (7): Linear(in_features=8, out_features=10, bias=True)
      )
    )
  )
)
[2025-02-06 23:56:07,817] [INFO] [real_accelerator.py:222:get_accelerator] Setting ds_accelerator to cuda (auto detect)
Load dataset file 2024-01-13.feather from cache
Load dataset sucessfully.
Step 50: {'loss': 1.2987, 'grad_norm': 0.063633, 'learning_rate': 0.099997, 'epoch': 1}
Step 100: {'loss': 1.2427, 'grad_norm': 0.112424, 'learning_rate': 0.099995, 'epoch': 1}
…
